Reinforcement/0523/ckpt/best_model.pt (torch, 24633 bytes, 6 tensors)

model.0.weight f4 [64, 16]
000000 24 f3 18 be a4 ed 4c 3d 9b 8a e2 3c 4d 83 0b be
       -0.14936501 0.05003132 0.027653983 -0.13624306
000010 cf 6d 25 3e e6 5b 3f be 32 9b 06 be 42 12 55 be
       0.1615517 -0.186874 -0.1314514 -0.20807746
000020 b7 33 a9 bb 53 52 1b be a3 bf 14 bd 8e 53 88 3d
       -0.0051636356 -0.15168123 -0.03631557 0.06656562
000030 f0 b9 f2 bd 09 1c 8e bd 75 d3 a4 3d a0 3c 9d 3c
       -0.11851871 -0.06938941 0.08048145 0.019193947
000040 ed f5 29 be 6f 81 83 3c 05 6c 93 3e 24 b2 d7 bd
       -0.1659772 0.01605293 0.2879335 -0.105320245
000050 8f 67 7e bd 43 92 2b be 45 1e 43 be ec aa 11 be
       -0.06211048 -0.16755013 -0.19054516 -0.14225358
000060 cf 65 4e be 96 e1 60 3e a7 63 62 3e 46 b5 1a bd
       -0.20156024 0.21961054 0.22108327 -0.037770532
000070 e1 ab 26 be 6d 4d 41 3e df 16 64 be 42 c0 ad bd
       -0.16276504 0.18877192 -0.2227435 -0.08483936
000080 69 1f 01 be 91 6a 15 bc e2 27 25 bf aa 8a 9e be
       -0.12609638 -0.009119646 -0.6451398 -0.30965167
000090 b5 73 a7 3d 75 0a 8d bd 38 9f 2a bf 0f ca d6 be
       0.08176366 -0.0688676 -0.666492 -0.41951033
0000a0 5e c3 76 3d 81 6b e3 3c ee 1c 91 be c2 7e 3e be
       0.06024491 0.027761223 -0.28342384 -0.18603042
0000b0 70 17 47 3e cf 52 e7 3d 3c c7 00 bf e9 54 03 bf
       0.19442534 0.11295091 -0.5030401 -0.5130144
0000c0 fd 41 04 be fd 6d 0b be ea ee e9 3b 89 24 16 3e
       -0.12915798 -0.13616176 0.0071390765 0.14662375
0000d0 a0 70 16 3e 92 34 28 be c8 cb 2e bc e2 a6 20 be
       0.146914 -0.16426304 -0.010668702 -0.1568866
0000e0 7f 30 51 3e 0f d1 81 3e 9b ca c3 3d 8d 72 32 3d
       0.20428656 0.25354812 0.09560128 0.043566275
0000f0 49 72 f6 3c bb 42 f3 bd 2a f1 58 3e 15 d3 ee bd
       0.030083792 -0.11877962 0.21185747 -0.116613545
000100 e0 cf 05 bd 20 97 81 be e5 ff 6a 3b 11 c8 71 bd
       -0.03266895 -0.25310612 0.0035858091 -0.05902869
000110 75 ce 13 3e 0c 6c 75 bd 7d 1e 89 3e f7 28 aa 3c
       0.14434226 -0.059917495 0.26781073 0.020771487
000120 1c 74 71 3d 3c 26 49 be 6e a4 49 be be bb f3 3b
       0.05894862 -0.19643492 -0.19691631 0.007438152
000130 fe c4 53 3e 0d 50 40 3e 60 fa cb 3a 56 a2 92 be
       0.20680615 0.18780537 0.0015562288 -0.28639477
000140 ce 20 83 bd 9e 48 1a 3d a0 b5 8e 3e d9 0e 74 bc
       -0.064027414 0.03766691 0.27872944 -0.014896118
000150 3a f9 1a 3e 11 92 7c 3e 4e 8f 20 3d a5 aa 5e be
       0.15134135 0.24665095 0.039199166 -0.21744783
000160 4a 6e a9 3e 0c 26 2f 3e a9 dc 3c bd a2 b4 70 3d
       0.33091956 0.17104357 -0.046108875 0.058766015
000170 30 fa 35 3e de 3e b7 3c 51 41 c1 3d f9 a0 8a bd
       0.1777122 0.022368845 0.09436286 -0.06768984
000180 2f bd b8 3e b9 00 d4 3d 9b 77 6d 3e b1 7b 97 3e
       0.36081836 0.103517 0.23190157 0.29586557
000190 8d 1d 9f 3c e0 20 dd 3d cb 9c ce 3e 30 2c 1b 3e
       0.01942327 0.10797286 0.40354 0.15153575
0001a0 57 7a 30 3d d4 9d 29 bd 52 2b 6b 3d 85 75 1b 3d
       0.043085422 -0.041410282 0.05741436 0.037953872
0001b0 28 08 dd bd b5 53 bf 3c e4 06 7a 3e ec 06 f7 3e
       -0.10792571 0.023355344 0.24416691 0.48247468
0001c0 e6 10 91 bc b3 37 bc 3d 49 ab 1d bd a3 c6 ec 3d
       -0.017708253 0.09190311 -0.03849343 0.115613244
0001d0 4c 75 2e be 02 38 ca 3b e4 71 91 bc 3b 61 27 be
       -0.17036933 0.0061712274 -0.017754503 -0.16345684
0001e0 74 e2 4b 3e f9 84 96 3c 6c cd e0 3c 7a 60 7f 3d
       0.19910604 0.018373953 0.027441703 0.062347867
0001f0 52 91 e4 3d 26 0c 82 3d 24 51 79 3e c6 b4 16 be
       0.1116053 0.063499734 0.24347359 -0.14717397
000200 86 29 32 3e 9f 16 36 3e 07 b9 3c 3e 98 78 4a 3e
       0.17398652 0.17782067 0.18429957 0.19772565
000210 85 96 75 bd 47 23 ab 3d ae 0f 25 be e9 e8 c6 bb
       -0.059958 0.08356338 -0.16119263 -0.0060702455
000220 8a f9 56 be 23 db ea 3d 1d 5e b4 3c c0 5f fe bc
       -0.20993629 0.11467578 0.022017533 -0.031051517
000230 43 dc c7 bd d4 03 66 3e 00 88 ac bd f6 6d 69 be
       -0.097588085 0.22462398 -0.084243774 -0.22795853
000240 74 94 24 3d 5d b4 11 be 18 01 14 bf 7b e5 96 be
       0.04018064 -0.1422896 -0.5781417 -0.29471955
000250 35 9e f2 bd 4c 69 e4 3c 82 bf 1d be 26 6a 1c be
       -0.11846582 0.02788224 -0.15405086 -0.15274867
000260 37 4f 68 3e d0 c0 3e 3d c7 fa ea be 26 14 e3 be
       0.22686468 0.0465706 -0.45894453 -0.4435131
000270 58 46 06 3e 92 dc 62 3e c3 0a 0f bf e6 a5 c2 be
       0.13112772 0.22154453 -0.55875796 -0.38017195
000280 8e 71 9f 3e 5f 05 86 3e 65 fe 87 3e e5 35 3f 3e
       0.31141323 0.26175973 0.26561275 0.18672903
000290 d2 48 8d 3e 41 e5 4d bd cf 08 95 3e cc 9c b8 3e
       0.2759462 -0.05026746 0.29108283 0.36057127
0002a0 d3 f0 88 3e 13 97 a9 bd 26 f2 8f 3e c3 61 3e 3e
       0.26746234 -0.08280768 0.28114432 0.1859198
0002b0 57 68 2f bd 6a e8 2f be 7e fb 66 3e 68 03 a9 3e
       -0.042824116 -0.17178503 0.22556874 0.3301041
0002c0 01 88 46 3e 71 15 ec bd 3b c6 18 3e d9 97 6d be
       0.19387819 -0.11527527 0.14919369 -0.23202457
0002d0 53 f5 29 3b b3 d4 ff bc 9b b4 bd 3c 7b d6 f1 3d
       0.0025933578 -0.031229353 0.023157408 0.11808487
0002e0 1e 2b 16 be 80 26 f4 bd 9b 8f 6c 3e 72 ac 1c be
       -0.14664885 -0.11921406 0.23101656 -0.15300158
0002f0 ac c2 1c 3e da 25 fc bd 87 72 17 bc 8c 64 98 bd
       0.15308636 -0.12311907 -0.009243614 -0.07441053
000300 84 c5 b1 bc a8 f3 59 3d df d3 f1 be 2b 35 c5 be
       -0.021700628 0.053210884 -0.47231957 -0.38517126
000310 50 cc ac 3d 14 62 0a 3e 3d a2 3e bf 30 cb ff be
       0.08437407 0.13513976 -0.74466306 -0.49959707
000320 ea d5 d8 bd ce 4f 35 be dc ed 95 be e0 64 a2 be
       -0.10587676 -0.17706224 -0.29283035 -0.31717587
000330 38 d0 e9 bc 4e 41 93 3d 52 ce 37 bf f1 fd 1d bf
       -0.02854167 0.0719019 -0.71799195 -0.6171561
000340 aa cf 56 3d 68 62 85 be 6a e1 71 be bc fa 37 3e
       0.052444138 -0.2605164 -0.23621145 0.17966741
000350 7a 39 34 bd c0 e3 95 be 28 80 14 bd c3 ae 84 bb
       -0.044000126 -0.29275322 -0.03625503 -0.0040491535
000360 cf de 59 3e 2d 71 87 be ae 05 8d 3d 14 f8 44 3e
       0.21276401 -0.26453534 0.06885849 0.1923526
000370 f1 c6 56 3d c4 ed 5f bd 9f 37 84 be 08 a4 e5 3d
       0.05243582 -0.05467011 -0.25823686 0.11212927
000380 64 d2 46 3e 6f a3 7b 3e e8 6a 83 be 72 19 a6 bd
       0.19416195 0.24574064 -0.256675 -0.08110322
000390 0f 25 c3 3e aa 85 7b 3e 61 61 98 bd 97 92 9f be
       0.3811421 0.24562708 -0.074404486 -0.31166527
0003a0 0f 02 5d 3e a1 fd 2e 3e 3b 90 cf be 2a b0 b7 be
       0.21582817 0.17088939 -0.40539727 -0.3587659
0003b0 fa 0f 56 bb 2a 6b d6 3e 06 3d 56 be af 2a 21 be
       -0.0032663331 0.41878635 -0.20921716 -0.15738939
0003c0 89 3a 89 bd 42 ba 16 be df 16 b3 bc 55 a3 46 bd
       -0.06700618 -0.14719489 -0.021861492 -0.04849561
0003d0 ff fe ea 3c 95 7a 60 be 52 f6 76 be 7d c1 1e 3e
       0.028686045 -0.21921761 -0.24117401 0.15503497
0003e0 e8 98 0c 3e c9 33 0d be a5 b2 04 3e 10 d2 b5 bd
       0.13730204 -0.13789286 0.12958772 -0.08877957
0003f0 18 5e c4 3d fc d6 c6 3e 9e 31 59 3d 43 05 6a be
       0.095882595 0.38835895 0.053025834 -0.2285357

model.0.bias f4 [64]
000000 bc f0 13 3f 06 74 c4 3e bb 11 f9 bb 5b b2 0f 3f
       0.57789207 0.3836977 -0.0076009906 0.56131524
000010 47 18 bf 3e a2 ba c1 3e f1 14 af bb 9b e2 96 be
       0.3732321 0.37837702 -0.0053430726 -0.2946976
000020 dd 84 ca 3e fc 18 0d 3d 8f 19 a3 3d d5 e4 03 3f
       0.39554492 0.034447655 0.07963859 0.51521045
000030 0e 24 ff bd 05 a3 05 3f 7c a5 24 be 33 5c d4 3e
       -0.12458049 0.52201873 -0.16078752 0.41476592
000040 c7 e6 bc 3e 6e 0d dd 3e 54 90 f5 3e a0 56 84 3e
       0.3689482 0.4317431 0.47961676 0.2584734
000050 2f 00 0c 3f 45 a7 a9 3e 26 a0 0f 3f f1 d3 de 3e
       0.5468778 0.3313543 0.5610374 0.43521073
000060 44 a9 04 bd 80 34 10 3f 68 58 b8 bb e4 f0 b0 3e
       -0.032387987 0.5633011 -0.005625773 0.34558785
000070 67 6a 15 3f 5b b9 1a 3f 58 d4 dc 3e 86 0c f1 3e
       0.5836548 0.6043908 0.43130755 0.47079867
000080 12 0f 5e bd cd 48 28 3e 25 c8 e1 bc ac 63 43 3d
       -0.05421359 0.16434021 -0.027561257 0.047702476
000090 3e 02 0e 3f 63 81 bd 3e f4 68 f6 3e 12 ec 04 3f
       0.5547217 0.37012777 0.48126948 0.51922715
0000a0 0c ac 5e bc e7 3b 0f 3f 42 ac 9d 3e cb 7d 07 3f
       -0.013590824 0.5595078 0.30795485 0.5292632
0000b0 56 ad 64 be ef 81 bc 3e 1d 49 0f bd 13 2d f8 3e
       -0.22331747 0.3681788 -0.034981836 0.4847189
0000c0 8a 6a 05 3e 77 d8 b1 3e f7 6a 77 3e e4 ac d6 3b
       0.13028923 0.34735462 0.24161898 0.006551372
0000d0 dc 7f da bc ab 60 cc 3e b8 59 ac 3e 69 2f 46 bd
       -0.026672296 0.39917502 0.336622 -0.048385058
0000e0 c1 cd ea 3c 17 14 03 3f e2 81 1a 3d 8d 2f b1 3e
       0.028662564 0.5120253 0.037721522 0.3460659
0000f0 58 06 b6 bd 6a 04 2a 3e 53 72 1f be 01 c8 db 3e
       -0.08887929 0.16603246 -0.15570955 0.42926028

model.2.weight f4 [64, 64]
000000 36 c5 99 3e 5a 8b 9b 3e bd aa 8a be c6 20 92 3e
       0.30033273 0.30379754 -0.27083388 0.2854063
000010 21 97 c8 3e d5 ee 91 3e 25 59 ed bd d8 a1 39 3d
       0.39177802 0.28502527 -0.115892686 0.04532036
000020 8f 3a 8e 3e 80 ac 1a be 03 9e 0c be 6b 9b 8e 3e
       0.27779052 -0.15104866 -0.13732152 0.2785295
000030 26 d0 26 be 9c b7 9c 3e e6 fc c8 bd 1f 40 87 3e
       -0.1629034 0.30608833 -0.098138615 0.26416108
000040 01 5c 1e 3e e0 b3 8b 3e 22 8e cf 3d 5a 5e 0a 3e
       0.15464784 0.2728567 0.101345316 0.13512555
000050 12 37 8c 3e 04 8b 9e 3e 90 64 a9 3e e4 f5 2d 3e
       0.27385765 0.30965436 0.33084536 0.16988331
000060 93 4b f7 bd 97 a2 8c 3e fa 8f ab be 19 24 aa 3e
       -0.120749615 0.27467796 -0.33508283 0.33230665
000070 53 43 b1 3e df 5b 93 3e d6 1d 9e 3e ca 45 be 3e
       0.34621677 0.2878103 0.30882138 0.3716262
000080 29 b9 70 be 6e 3c 3b 3e 0b 3a a4 be 35 40 eb bd
       -0.23508133 0.18284771 -0.32075533 -0.11486856
000090 55 f1 53 3e be 4c 83 3d 6a b4 2c 3e a5 11 b9 3e
       0.2069753 0.06411122 0.16865698 0.36146274
0000a0 46 26 8c bd 9e f0 9b 3e 3f a4 a2 3e d1 06 bf 3e
       -0.068432376 0.30457014 0.31765935 0.37309888
0000b0 20 4b 81 be f4 73 84 3e bb 05 66 be 00 82 80 3e
       -0.25252628 0.25869715 -0.22463124 0.25099182
0000c0 7f 35 4c bd e2 a7 3a 3e 43 26 81 3e fd 97 ed 3c
       -0.049855705 0.18228105 0.25224504 0.029003138
0000d0 57 88 a1 bd ab e9 74 3e 8f 42 43 3e 25 f0 6e be
       -0.07887333 0.23917262 0.19068359 -0.23333795
0000e0 77 03 83 be 38 4c 4f 3e 83 b5 5c bd 30 f2 46 3e
       -0.2558858 0.20243919 -0.05388404 0.19428325
0000f0 a9 51 12 be 23 97 33 3e 73 cb 2e bd e4 e2 cd 3d
       -0.14288963 0.17538123 -0.042674493 0.100530416
000100 84 66 d9 3e da b1 80 3e af 71 ab be 45 37 86 3e
       0.42461026 0.2513569 -0.3348517 0.26214042
000110 fb 84 92 3e 3c fc 23 3e b3 44 68 be 1f ff b8 3d
       0.2861708 0.16014189 -0.22682457 0.090330355
000120 6a 1c bc 3d a4 f2 3b be 3a 6c 95 bd 50 50 b2 3e
       0.09185107 -0.18354279 -0.07296033 0.348269
000130 e1 f2 cb be 75 86 6c 3e 8c ed 5d be 3f c7 93 3e
       -0.3983374 0.23098166 -0.21672648 0.2886295
000140 a2 3e 2b 3e 8b b5 d6 3d 11 33 64 3e 59 36 c8 3e
       0.16723111 0.10483845 0.22285105 0.39103964
000150 5c d9 4a 3e cc a6 b2 3d 68 e0 21 3e 88 aa 0f 3e
       0.19809479 0.0872322 0.1580826 0.14029896
000160 cf 8e ae be ce df bc 3e aa b6 dc be ee 3b 79 3e
       -0.3409333 0.368895 -0.43108112 0.24339268
000170 d3 df 5e 3e 60 67 a0 3e 0e 53 56 3e 49 cc 34 3e
       0.2176507 0.3132887 0.2093012 0.17656054
000180 f7 23 e9 be 6e 12 c0 3e 4a ba b3 be bd 26 8a be
       -0.45535251 0.3751406 -0.35103065 -0.2698268
000190 0a 6b 9e 3e 8a 43 55 3e a8 a2 6a 3e b9 5f 89 3e
       0.3094104 0.20826545 0.22913611 0.26830843
0001a0 3c 77 a2 bd a7 d4 9a 3e 7f 94 5f 3d b4 fe 6c 3e
       -0.079328984 0.30240366 0.054584976 0.23144037
0001b0 b9 25 98 be 02 27 0f 3e 3d 33 44 be 6f 99 63 3e
       -0.2971628 0.13979724 -0.19160171 0.22226499
0001c0 53 95 08 be 4a 76 63 3e 3d 66 86 3e 24 d1 31 bd
       -0.13338213 0.22213092 0.26249877 -0.043412343
0001d0 c7 da a2 be 3e 2a 07 3e 5c 41 63 3e 6c 38 2a be
       -0.3180754 0.13199708 0.22192901 -0.16623086
0001e0 06 1a 9e be 18 c8 a7 3e d7 2f 87 3d f4 fb 40 3e
       -0.3087923 0.32769847 0.066009216 0.18846112
0001f0 54 88 2d be 1f 38 d2 bc db e3 43 be b2 eb 3e 3e
       -0.16946536 -0.025661526 -0.19129889 0.18644598
000200 b6 75 8e 3e 1a 45 a2 3e 7b fd 67 be 4e b4 a2 3e
       0.2782418 0.31693345 -0.22655289 0.31778187
000210 03 be a5 3e 61 94 c5 3e 41 64 35 be e2 c6 68 3d
       0.3237153 0.38589767 -0.17714025 0.056830294
000220 58 22 a8 3e 48 96 9d bd cd c3 82 3d 18 de bc 3e
       0.32838702 -0.076946795 0.06385002 0.36888194
000230 78 42 19 be 50 d7 2f 3e 4d 7a 25 be 41 de 44 3e
       -0.14966762 0.17171979 -0.16159935 0.19225408
000240 af 49 3d 3d e5 cf 42 3e e2 fa 07 3e 05 00 cc 3e
       0.04621285 0.19024618 0.13279298 0.39843765
000250 e4 94 43 3e 42 f0 50 3e aa 44 27 3e 2b 40 a5 3e
       0.19099766 0.20404151 0.16334787 0.3227552
000260 9a 47 57 be be 50 87 3e 28 29 c2 be 47 70 84 3e
       -0.21023408 0.2642879 -0.37922025 0.2586691
000270 41 35 45 3e 92 f6 6c 3e 83 e6 ba 3e 2d b7 a9 3e
       0.19258596 0.23140934 0.3650399 0.33147565
000280 00 67 db be 5e ec b5 3e 0a 02 42 be 92 48 0e be
       -0.4285202 0.35531896 -0.1894609 -0.13894871
000290 47 a2 82 3e b4 69 91 3e c7 5a 16 3e 67 ae 7c 3e
       0.25514433 0.28400958 0.14683066 0.24675904
0002a0 60 99 0e be 7e 04 7a 3e 6d e2 2e 3e ed 6f cc 3e
       -0.13925695 0.24415776 0.17078562 0.39929143
0002b0 65 63 70 be a2 87 92 3e df ab 8f be 21 dd a5 3e
       -0.23475416 0.28619105 -0.28060815 0.3239527
0002c0 e3 20 cf 3d fe a1 8b 3e b0 ac 9f 3e 86 c0 9b bd
       0.101136945 0.27272028 0.31186438 -0.0760508
0002d0 97 c0 49 be 88 9f 93 3e bc 6c 00 3e 8c 34 bc bd
       -0.19702373 0.2883265 0.12541479 -0.0918971
0002e0 03 b7 82 be 20 a2 0b 3e 8a 94 2c 3d aa 05 67 3e
       -0.25530252 0.13636065 0.042133845 0.22560754
0002f0 d5 d3 55 be 2b 92 a8 3d b1 6d a1 be 4a 77 80 3e
       -0.20881589 0.08231004 -0.31529 0.2509101
000300 13 dc 25 3e 8b 58 20 3e 36 86 47 bf 6f 40 53 3e
       0.16197233 0.15658776 -0.77939165 0.20630048
000310 50 8d d0 bd 3b 6f c8 3d 08 8d d8 bc b3 9b 96 bd
       -0.10183203 0.097868405 -0.026434436 -0.07353916
000320 2e bb f9 3b 45 b1 2f bf f6 b1 e1 bd 66 15 10 3e
       0.0076211905 -0.68629867 -0.110202715 0.14070663
000330 79 a3 08 bf c1 4d 3e 3d 02 2a c0 be 8c c7 e7 bd
       -0.5337444 0.04646087 -0.3753205 -0.113173574
000340 ad cd 63 3e 89 bb 97 bd 81 dd 82 3d 43 94 f1 3e
       0.22246428 -0.07408816 0.06389905 0.47183427
000350 ce 89 13 3e ec 48 1b 3d 44 2a b9 3d a3 ad 58 be
       0.14408037 0.03791134 0.09041265 -0.21159987
000360 eb 23 59 bf b6 e8 1e 3e 07 32 5b bf 50 dd f2 3d
       -0.8482043 0.1551846 -0.8562321 0.11858618
000370 87 e7 b0 3e 19 20 0a 3e 2c e9 db 3d 22 20 2a 3e
       0.3455164 0.13488807 0.107378334 0.1661382
000380 3d 86 1c bf 11 72 d4 3d 7e 70 b5 3d 9f 6e 3c bf
       -0.6114233 0.10373319 0.08859347 -0.73606294
000390 77 ff 69 3e 06 3e fe 3d 8e 72 dd bd 94 25 ed 3d
       0.22851358 0.12414174 -0.10812865 0.11579433
0003a0 71 e7 9f 3d 5c f8 fb 3d 39 1c d7 bc a2 a4 a6 3e
       0.07807816 0.1230323 -0.026258575 0.3254748
0003b0 91 b5 d6 be 63 4e 11 bd 94 ae 8f 3d e6 a8 8b 3e
       -0.419354 -0.035475146 0.0701572 0.27277297
0003c0 f2 9c 03 3e e0 eb a0 3d 5f f7 96 3e 68 c6 af 3c
       0.12852839 0.078574896 0.29485604 0.021456912
0003d0 54 36 e7 be 54 58 db 3d b9 71 33 3d e5 bb be 3a
       -0.45158637 0.10710207 0.043809626 0.0014551847
0003e0 7a 06 5e bf e4 fd 0f 3e ac 1f 7a 3c 26 09 e6 3d
       -0.8672863 0.14061695 0.01526634 0.11232214
0003f0 99 f8 ab be d6 46 23 bd 60 31 17 be 2b 60 72 3e
       -0.33588102 -0.039862476 -0.14764929 0.23669498

model.2.bias f4 [64]
000000 84 28 9a 3e 88 18 6a 3e 46 8c 9e 3e 76 85 0d 3e
       0.30109036 0.2286092 0.30966395 0.13820443
000010 92 52 bd 3e 35 a8 c4 3e 18 22 b0 3e bb 74 61 3d
       0.3697706 0.38409582 0.3440101 0.055042963
000020 b7 4b fc bd 69 cb 52 3e ad 2e 3f bd 76 bf 0d 3d
       -0.12319129 0.20585407 -0.046675373 0.03460642
000030 60 2c f7 bc 45 2a 00 be 61 13 96 3e 96 53 93 bc
       -0.030172527 -0.12516125 0.2931166 -0.017984193
000040 89 6f 8a 3e 60 77 0b bb f8 1c 1d 3d 2a 78 96 3e
       0.2703822 -0.002128087 0.038357705 0.29388553
000050 07 fc 51 3e c6 96 4b 3e 5a 2a 83 3e f4 08 68 3e
       0.20506297 0.19881734 0.2561825 0.22659665
000060 0c de 4b 3e d2 86 a8 bd 0d 65 a7 3e 46 3a 3b 3e
       0.19908923 -0.0822884 0.32694283 0.18283948
000070 7b 6b 8e 3e e0 bc 82 3e 15 8a 89 3e 68 dd 23 3c
       0.27816376 0.25534725 0.2686316 0.010001518
000080 d3 04 b2 3e 78 5f 76 3e 35 6a b9 3e 60 c8 09 3e
       0.34769306 0.24059856 0.36213842 0.13455343
000090 0a ad bc 3e e3 e6 97 3e 4f 06 a7 3e bb 22 8b bd
       0.36850768 0.2966834 0.32622 -0.06793734
0000a0 be f6 9f 3d 10 c5 19 3e ab 46 b2 bd 3e 95 34 3e
       0.07810734 0.1501658 -0.08704885 0.17635056
0000b0 2d ab 81 3e 35 53 b6 3e db 8c 1d bc c8 2e 9b bd
       0.2532591 0.35610357 -0.009616102 -0.07577282
0000c0 f2 43 a8 3e e8 a7 48 3e 4d a1 80 3e 3c b2 68 bc
       0.32864338 0.19595301 0.25123063 -0.014202651
0000d0 f7 77 b3 3e 78 f0 dd 3d 58 0f 58 3e 51 bb a7 3e
       0.35052463 0.108368814 0.21099603 0.327601
0000e0 c0 24 06 3d 43 f3 89 3e 58 9b 24 3e 25 32 b2 3e
       0.03274989 0.26943406 0.16074884 0.34803882
0000f0 bc 7a c8 3d d6 91 9b 3e ff 32 2d bd d5 57 8a 3e
       0.09789035 0.30384701 -0.04228496 0.27020136

model.4.weight f4 [2, 64]
000000 05 6e bc 3e 0c f7 90 3e b4 65 ba 3e 1d 6e ed be
       0.36802688 0.28313482 0.36405718 -0.46373072
000010 9b b8 b7 3e 48 1c 82 3e 7f 42 e7 3e e8 66 bd be
       0.3588303 0.25412202 0.4516792 -0.36992574
000020 54 c6 ad bd da c3 94 3e ec ce 84 3d b0 11 b9 be
       -0.08485094 0.29055673 0.0648478 -0.36146307
000030 37 aa fa be 6d cb 02 3d dc 68 4c 3e 76 fa f8 be
       -0.4895799 0.031932283 0.19961876 -0.48628587
000040 b8 fa 9f 3e 14 2e 16 3f c3 16 fa be 96 ba 6e 3e
       0.3124597 0.5866406 -0.4884549 0.23313364
000050 03 51 4f 3e 5e a7 cc 3e d6 3b 71 3e 12 50 84 3e
       0.20245747 0.3997144 0.23557982 0.2584234
000060 98 cf 92 3e bd 61 ca be 2a 6d 86 3e 02 24 81 3e
       0.28674006 -0.39527693 0.2625516 0.25222784
000070 db d4 ac 3e e8 4f 95 3e a0 81 82 3e 13 ae e0 be
       0.33756146 0.29162526 0.2548952 -0.43882808
000080 98 7f bc 3e f9 94 51 3e ae 34 b9 3e c2 01 83 3e
       0.36816096 0.20466985 0.36173004 0.2558728
000090 e8 89 57 3e bb f2 b0 3e 54 18 ce 3e 5d f2 11 3d
       0.21048701 0.3456019 0.40252936 0.035631526
0000a0 9a 0b ee bd 56 45 6d 3e 32 07 1e 3d 9c bc 51 bc
       -0.116233066 0.23170981 0.03858108 -0.012801316
0000b0 e0 fb b5 3e 6b 56 8e 3e 19 9e fc be 12 cd 05 3e
       0.35543728 0.27800307 -0.4933937 0.1306651
0000c0 b2 d9 bf 3e c7 ee c4 be 40 6c 9e 3e fe 85 87 bd
       0.37470776 -0.38463423 0.30941963 -0.06617354
0000d0 b2 49 9b 3e 9f 19 f4 3e fe bb b4 3e 5f 85 83 3e
       0.30329663 0.47675797 0.35299677 0.25687692
0000e0 0c 70 68 be 21 04 9a 3e ce e0 9e 3e 64 36 a9 3e
       -0.22698992 0.30081275 0.31030887 0.3304931
0000f0 e9 6a cc bd b5 57 87 3e 64 a2 a0 be 0d 13 78 3e
       -0.09981329 0.26434103 -0.31373894 0.24226017
000100 f9 fc 76 3e b7 1e db 3e 85 6e 93 3e 02 bf 97 3e
       0.24119939 0.4279687 0.28795257 0.29637915
000110 f2 8b 7d 3e 39 e5 60 3e fd 99 7f 3e 11 c9 85 3d
       0.24760416 0.21962442 0.24961086 0.06532491
000120 00 1a c8 bc e1 f5 97 3e 77 31 98 be ed cd 9e be
       -0.02442646 0.29679778 -0.2972524 -0.31016484
000130 53 5e 89 bd db b8 54 be 12 5f c3 3e f9 48 85 be
       -0.06707444 -0.20773642 0.3815847 -0.26032236
000140 f3 db b7 3e dd 80 35 bb 12 52 29 be 79 99 92 3e
       0.35909995 -0.0027695217 -0.16535214 0.28632715
000150 97 08 b1 3e 0f 61 b2 3e 78 e4 ce 3e 68 b0 b4 3e
       0.34576866 0.34839675 0.40408683 0.35290837
000160 dd 3e 94 3e ac c4 8c be 5d 2f d5 3e 6a 75 98 3e
       0.2895421 -0.274938 0.41637698 0.2977708
000170 d0 1b 29 3e cd 55 b9 3d 5a 19 e6 3e 49 66 97 be
       0.16514516 0.09049568 0.44941217 -0.29570225
000180 59 7e 84 3e d7 39 c5 3e 4d 72 a6 3e 9d ee b7 3e
       0.25877646 0.3852069 0.3250908 0.35924235
000190 ce 3d 92 3e c9 a1 98 3e f1 e7 82 3e 84 d8 0e be
       0.28562778 0.29810932 0.25567582 -0.13949782
0001a0 98 22 54 be 2c 59 91 3e 02 3e ed 3d f7 41 bf be
       -0.20716321 0.28388345 0.11584093 -0.37355015
0001b0 3e 6e 9d 3e 6b dc a6 3e b3 bc 86 be 23 53 86 be
       0.3074817 0.3259004 -0.2631584 -0.26235303
0001c0 32 2a 96 3e af c2 80 3e 83 78 89 3e 64 0d e6 be
       0.29329067 0.25148532 0.26849756 -0.4493209
0001d0 fa 17 2a 3e 9f 66 47 3b e8 e2 ab 3e 17 e1 e9 3e
       0.16610709 0.0030426157 0.33571553 0.45679542
0001e0 31 b9 33 be 25 ae aa 3e a1 4d b7 3e e5 d4 4f 3e
       -0.17551114 0.33335987 0.35801414 0.20296057
0001f0 1c b6 bd be 72 b7 c1 3e d3 69 86 be ec e6 10 3f
       -0.37053 0.3783527 -0.26252612 0.5660236

model.4.bias f4 [2]
000000 ce 35 16 3e 0e 27 16 3e
       0.14668962 0.14663336
