Reinforcement/0523/model_pg/best_model.pt (torch, 7993 bytes, 4 tensors)

model.0.weight f4 [64, 16]
00000000: 8f19 493e e35e 1b3e 68c2 64bd 7e3d 4e3e
00000010: 9894 3abd 03f3 b6bc 7851 f3bd c630 e73d
00000020: 507d 6c3e b604 89be 5748 5e3e 8445 db3b
00000030: 58e4 593e f002 01be e2ab 0a3e 2162 e0bd
00000040: 8c36 4e3e 5b4e c2bb ab1b e6bd b527 2e3d
00000050: dc94 d4bd a63d b5bd fd16 cbbd e11a 0d3e
00000060: 5389 3fbe ba0e 3ebe aec9 94bd 39fa 3cbe
00000070: 5308 343d 611a c6be 95b6 7d3e b464 93be
00000080: 35be 383e c0df db3d 5bb2 8bbd 782e 2c3e
00000090: b217 d23c 950a 913e 9327 0a3d ee7e 46bd
000000a0: 9b21 5d3d 7c1f fd3c e260 f33d 3352 833e
000000b0: 64eb ec3d 1874 8e3d 573b 033e 35ba 013e
000000c0: 1ad2 f63d 10de 0cbe 6b5d 84be db8e a7bd
000000d0: 6f28 4bbe 1ab0 6d3e 09e9 803d 33fd f73d
000000e0: d71d 9c3d 6f93 063d ad14 323e 5b9f 12be
000000f0: 126c 4a3b 572e c8bd b189 5c3d b964 35bd
00000100: 57e6 aa3d 91a1 dcbd 35ff 3c3e 8ee5 21be
00000110: c17f 0fbe e64f 61be b406 593e d8e5 5b3d
00000120: 10a2 833e ae2d 97be e438 7fbe 3544 72be
00000130: 48f9 1cbe a4de 28bd bdef dc3d 5a6f 043e
00000140: a5f8 08be e7a5 1dbe 3b9d 143e 9ae6 d7bd
00000150: 5aa2 183e dbb8 20bd 567d 113e fa7b 3abe
00000160: 0a02 0ebe ad83 c53d decc 6f3d 5ae4 74bd
00000170: 0395 063e ebd2 413e bfe7 3fbe db88 f1bd
00000180: f3f1 603e a7e4 2abd f054 b2bd cc2a 61be
00000190: dd97 1bbe 333a ed3d a383 c6bc fa46 25be
000001a0: 6a9f 21bc f26d c5bd a95e 56be f698 d9bd
000001b0: 6a30 71be 30a8 81bc 3d94 763e a971 d03d
000001c0: b2a1 963d 426b 93be 8588 3abe a4ea cfbd
000001d0: a223 4d3d e996 9abe 9841 e8bd 053d 3ebe
000001e0: 7c5f 563c 0ce6 49be fb9d ffbc 7520 55be
000001f0: 2728 2ebe 6383 9cbe 1ee2 c2bd 315d 82be
00000200: 26b4 613e 876e bdbd 58b7 593e 84d2 613d
00000210: 39b1 49be e7c4 d93d d478 84bd 39b3 08be
00000220: 27e9 3bbe f336 afbe 022f 823d d09b b9bd
00000230: 81db f63d 2e90 b3be 34b7 423e ae1e 76be
00000240: a334 43bd 9b8c 643d 85e6 fb3d 334f 573e
00000250: 7610 5d3e 157f 2cbe 8750 2e3d 54f0 98bd
00000260: db4e 1bbd 4064 10be 37ae 513e d2e1 15be
00000270: e598 d83d ff72 3f3e 499b 553d bab9 a3bd
00000280: d9de 633e b1a1 bf3d d9bf e13c 3214 4fbe
00000290: ef99 cb3d ca77 a13a c1dc dabd 826b 613e
000002a0: 242c 403d fbc0 c1bd 94fe f6bd 080e 463a
000002b0: 3f91 053e ab85 033d 5c04 17be 88b1 3fbd
000002c0: 4bfc 42be f04f 133e b51c 5d3e 6334 65be
000002d0: bd03 593d ed4c 493e cc9c 543d e455 69bd
000002e0: 0379 f03d e784 583e 3be4 bd3d 6185 92bb
000002f0: 76a4 a8bd ecd4 193e 5ac1 67bd 24f5 54bc
00000300: 3115 263e eceb 163e 1032 0abd 2d04 a2bd
00000310: a102 0f3c 4399 c7bd 2517 5c3d 25a1 133d
00000320: 1480 5ebe c482 3fbe ebb4 3f3e 75d1 8e3d
00000330: 8418 93bb a090 9fbe 007b 37be 50e4 88be
00000340: 34a7 a1bd dd15 fb3d 0915 203e ba14 0c3e
00000350: 987d 62be ef9d cfbd 27b4 3dbd ddd7 893e
00000360: 92f5 cd3c 9b55 0abc f237 e13d ebeb 9abd
00000370: c0d1 3bbe 03b4 9e3e 074c dcbd a937 8ebc
00000380: 2cc1 7bbe 0f95 fa3d 5697 423e d35d 903d
00000390: db57 2dbe 32da 9cbe 4f6e 4ebe acb2 223e
000003a0: bd60 013e 8fac 0a3e 2525 023e cb03 003d
000003b0: f79d 733c 8d1b aebe bdfb 52be 3955 97be
000003c0: b6aa d33d 0a77 b7bd 668a 29bd 2c66 08be
000003d0: 469e 40bd c572 0bbe 7f16 22be 0b0a ca3d
000003e0: c143 a9bd 6ec1 4e3e fda7 8ebd c753 2cbe
000003f0: 30e6 64bd 31e0 2abd 87ce a1bd 62bd 50be
0.19638656 0.15172915 -0.055849463 0.20140645 -0.045551866 -0.022332674 -0.11880773 0.112886
0.23094678 -0.26761407 0.21707283 0.0066916365 0.21278512 -0.12598777 0.1354213 -0.109562166
0.20137995 -0.005929751 -0.11235746 0.042518336 -0.10379955 -0.08849649 -0.09916494 0.13779785
-0.18704729 -0.18560305 -0.0726503 -0.18454827 0.04395325 -0.38692 0.24776681 -0.28787768
0.18041308 0.10736036 -0.06821128 0.16814601 0.025646064 0.28328386 0.033729147 -0.048460893
0.053987127 0.030898802 0.11883713 0.2564865 0.11568335 0.06955737 0.12815605 0.12668689
0.120517924 -0.13756585 -0.25852522 -0.081815444 -0.19839643 0.23211709 0.06294448 0.12108841
0.07622879 0.032855447 0.173907 -0.14318602 0.0030887169 -0.097744636 0.05384225 -0.04428551
0.08344715 -0.10773004 0.18456729 -0.15810224 -0.14013578 -0.22003135 0.21193963 0.053685993
0.2570958 -0.29527038 -0.24924046 -0.23658831 -0.15329468 -0.04122795 0.10787914 0.12933102
-0.133761 -0.15395318 0.14513104 -0.10542031 0.14905682 -0.039238792 0.14207968 -0.18211356
-0.13867965 0.09644256 0.058544986 -0.059788086 0.13142781 0.18928115 -0.18740748 -0.11793681
0.21967296 -0.041721966 -0.08707607 -0.21988982 -0.1519465 0.11583366 -0.024232691 -0.16140357
-0.009864667 -0.09640111 -0.20934547 -0.10624878 -0.23553625 -0.015827268 0.24079986 0.10177929
0.0735506 -0.2879277 -0.1821614 -0.10152176 0.05008281 -0.3019326 -0.11340636 -0.18577965
0.013084289 -0.19716662 -0.03120326 -0.20813163 -0.17007504 -0.3056899 -0.09515785 -0.25461724
0.22041377 -0.09249597 0.21261346 0.055132404 -0.19696511 0.10633259 -0.06468359 -0.13349618
-0.1835066 -0.3422161 0.06356622 -0.09062922 0.12053586 -0.35070938 0.19015199 -0.24035141
-0.04765762 0.055798154 0.122998275 0.21026306 0.2158831 -0.16845353 0.042557266 -0.07467714
-0.037917 -0.14100742 0.20476614 -0.14636925 0.10576037 0.18696211 0.052150045 -0.07994409
0.22252978 0.09357012 0.0275573 -0.20222548 0.0994147 0.0012319025 -0.10686637 0.22013667
0.046917096 -0.09460636 -0.12060276 0.00075551914 0.13043688 0.032109898 -0.14747757 -0.046800166
-0.19041555 0.14385962 0.21592982 -0.22383265 0.05298208 0.19658251 0.051907346 -0.056966677
0.11741831 0.21144448 0.09272047 -0.0044714664 -0.082344934 0.1502263 -0.05658088 -0.012997899
0.16219021 0.14738435 -0.03373915 -0.07910953 0.008728654 -0.09746029 0.05373301 0.03604235
-0.21728545 -0.18702227 0.18721358 0.069735445 -0.0044890065 -0.31165028 -0.17918015 -0.2673669
-0.078932196 0.122600295 0.15633024 0.13679782 -0.22118223 -0.10137545 -0.046314385 0.26922503
0.025141511 -0.0084432615 0.10996999 -0.07564529 -0.18341732 0.30996713 -0.107566886 -0.017360525
-0.24585408 0.12235462 0.19003043 0.070491455 -0.16928045 -0.3063522 -0.20159267 0.1588847
0.12634559 0.13542388 0.12709482 0.031253617 0.014869205 -0.34005395 -0.20603843 -0.29557207
0.10335295 -0.08958252 -0.041391753 -0.13320225 -0.04702594 -0.13618 -0.15828894 0.09865197
-0.08264876 0.20190975 -0.06965635 -0.16828834 -0.055883586 -0.04171771 -0.0790072 -0.20384744

model.0.bias f4 [64]
00000000: 57de fb3d d65e 1bbb 9dfe 233e e3b6 30be
00000010: bfba 193d 70c1 1abe 0d97 983d 9d8d b6bc
00000020: be5b 88bc b5d8 7bbe ba7f 9dbc 8f1e 843e
00000030: 770d 123e 1acc c7bd 07bf 7c3c 521f 80bd
00000040: 8fbe 06be 418b 4f3e 8fb4 103d f3fc 133e
00000050: 102f fabc 60eb 02be 80cf e63c af82 bb3d
00000060: f823 cc3d e734 2dbe 16a8 8c3e 140c d33c
00000070: a556 c1bd 0f1d 6bbd 27ab 8b3e 0a65 f4bc
00000080: 7622 44bb 0cd4 05be bd99 563c 54c5 0fbe
00000090: 3530 21be 9f88 523e 2826 4c3e 6604 623e
000000a0: 6dd1 18be 9070 3a3e 72e5 22be d569 453e
000000b0: 4e6f 5a3e 5664 4d3e 0c4e 623e 8ea6 4a3e
000000c0: dcfc 5e3d 0802 253e 75d3 e1bd 53aa 0b3e
000000d0: 7517 9bbd fc10 f2bc bbe2 45be b5f8 94bd
000000e0: 932f 03be 00e0 e7bd fb0e dabd ce8b 43be
000000f0: 182e 0a3c 20ca 653e 8a5f 783e 911a 083e
0.12298267 -0.002370765 0.16015096 -0.17257266 0.03753161 -0.15112853 0.07450686 -0.022284323
-0.016645309 -0.24594386 -0.019225944 0.25804564 0.14262949 -0.09755726 0.015426404 -0.06255974
-0.1315863 0.20267965 0.035328444 0.14451961 -0.03054002 -0.12785101 0.028175116 0.09155785
0.09967798 -0.16914712 0.2747199 0.025762595 -0.09440354 -0.05740076 0.27279016 -0.029833335
-0.0029927767 -0.1306917 0.0130981775 -0.14040118 -0.15741046 0.2055993 0.1993643 0.2207199
-0.1492364 0.18207002 -0.15907839 0.19278653 0.21331522 0.20057806 0.22100085 0.19790098
0.054440364 0.16114056 -0.1102666 0.13639192 -0.075728334 -0.029549114 -0.19324772 -0.072739996
-0.12811117 -0.113220215 -0.106473885 -0.190963 0.008433841 0.22440386 0.24255195 0.13291384

mu_layer.weight f4 [1, 64]
00000000: 37e1 4abd 54cd 20be cddd de3d 850c 133d
00000010: b992 f1bd f788 6e3c dd4b 823d 701d b2bd
00000020: e2ee 18be 817a 8c3d 0388 533d c6cd 923d
00000030: 29c2 23be cd42 c83d 0464 ccbd 079d 2a3d
00000040: 74bc 00be 58ce aa3d 268e 3abd e464 053e
00000050: 4999 c8bd 04b2 193d 0879 70bd dd80 0abe
00000060: 9b34 f3bd f839 543d fd0c b4bd 003c bc3d
00000070: 49db d8bd a9d3 0f3e 782f fd3d 57b1 1b3c
00000080: 220c 9dbd 59eb 94bd 5fda 943d 250a 0abe
00000090: baab 213e 692a 4cbe acc2 9b3d 1220 f23d
000000a0: 5e3e b83d 497e a23d 98d0 ebbd d279 163e
000000b0: 9f62 babb f366 04be 9edd 2f3e 0662 c5bd
000000c0: 71c6 553d 1802 2c3e 83b7 a8bd 1476 efbd
000000d0: 4b75 1dbd d0b4 1ebc 49c9 3f3d 7f5e d9bd
000000e0: 944c 613d f384 e0bc 7681 e1bd 46d9 1fbe
000000f0: 8f2b 9a3d c0a1 a33d 5da4 28be cd07 e23d
-0.049531188 -0.15703326 0.10882149 0.03590061 -0.11795563 0.014559022 0.06362126 -0.08697021
-0.14934877 0.06859303 0.051643383 0.071681544 -0.15992035 0.09778366 -0.09980014 0.04165366
-0.12571889 0.08340138 -0.04554572 0.13026768 -0.09794862 0.037523285 -0.058709174 -0.1352572
-0.11875268 0.051813096 -0.0879154 0.091911316 -0.105887 0.14045586 0.123625696 0.00950273
-0.0766833 -0.072714515 0.072682135 -0.13480432 0.15788165 -0.19938053 0.0760549 0.11822523
0.089962706 0.07934243 -0.115143955 0.14694908 -0.005688026 -0.12929897 0.17174384 -0.09637837
0.0521912 0.16797674 -0.08238127 -0.116924435 -0.038441937 -0.009686664 0.04682282 -0.10613727
0.05500467 -0.027407145 -0.11011021 -0.15610227 0.075278394 0.07989836 -0.1646895 0.11036644

std_layer.weight f4 [1, 64]
00000000: 9f60 923b d76c b8bd 4d21 08bc aa17 e23d
00000010: 5f95 8c3d 85be d1bd 8637 d13d c712 f7bb
00000020: 76b4 0e3d 5dcb a43d 50b2 a83d 1b75 f8bd
00000030: c8b0 983d 5342 c5bd bf30 e8bb d7ac dfbd
00000040: 7b04 54bd 647f c2bc c127 c2bc c548 50bd
00000050: fc34 1fbc 979f f03d 2fb5 7a3d db41 553d
00000060: 389b 003d b05a ba3d a386 f9bc 1bb8 52bc
00000070: 35f8 333b 739f 09be 0dec 03be eb93 9d39
00000080: a104 81bd 80a1 01bd 5225 54bd e76a 883b
00000090: 5269 783d 5366 7dbd 406b 843d 3bea a23d
000000a0: 716a d9bd 16be e8bd 9a9f d6bd cfd5 b4bd
000000b0: e0bd a0bd 6d56 c8bc a1ce 59bd da6e c1bd
000000c0: 1821 81bd 4cb4 91bd 8f12 f13d 42bc 86bd
000000d0: 97ff c2bd beb3 ff3c 4ff8 84bc 2aac 973d
000000e0: 0c93 553d 7bc1 c43d f35f dbbd 6d5f 863d
000000f0: 8790 c23d e414 b5bd 596b c33d e445 6c3d
0.0044670845 -0.090051346 -0.008308721 0.1103967 0.06864428 -0.10241417 0.102156684 -0.00754008
0.03484007 0.08046601 0.082371354 -0.12131711 0.07455593 -0.09631791 -0.007085889 -0.109216385
-0.051762085 -0.023742385 -0.023700597 -0.05085065 -0.009717222 0.11749189 0.061207946 0.052064758
0.031398028 0.090993285 -0.030459708 -0.012861277 0.0027461175 -0.13439731 -0.12883015 0.0003005558
-0.06299711 -0.03164816 -0.051793404 0.0041631344 0.060647316 -0.061865162 0.06465769 0.07954832
-0.10616005 -0.11364381 -0.1047966 -0.08829843 -0.07848716 -0.024455274 -0.053175572 -0.094449714
-0.0630514 -0.07114467 0.11771118 -0.06578876 -0.09521406 0.031213637 -0.016231684 0.074058846
0.052142188 0.09607216 -0.1071166 0.0656117 0.09500223 -0.08841875 0.09541959 0.05768384
