Reinforcement/0523/model_ac/best_model.pt (torch, 25207 bytes, 6 tensors)

model.0.weight f4 [64, 16]
0	0x3e572086	0.210085
1	0xbbe513c4	-0.0069908816
2	0xbd53f165	-0.051743884
3	0x3d09c0a5	0.033630986
4	0xbe504a0e	-0.2034075
5	0x3de65bc8	0.11247975
6	0xbe1cd9b6	-0.15317425
7	0x3d60f95a	0.0549253
8	0x3c22e327	0.009941853
9	0x3df91ff3	0.12164297
10	0xbe543ff7	-0.20727526
11	0xbe4083b2	-0.18800238
12	0x3dc84adf	0.097799055
13	0x3e9cc82a	0.30621463
14	0xbe6752dc	-0.22590202
15	0x3e2b7345	0.1674319
16	0xbe44f3d1	-0.19233634
17	0x3e087077	0.13324152
18	0x3e83671c	0.25664604
19	0x3e4b2f75	0.19842322
20	0xbe424943	-0.1897326
21	0x3e87feef	0.26561686
22	0x3e203002	0.15643314
23	0x3c97b808	0.01852037
24	0x3e70478a	0.2346479
25	0x3bf1658c	0.0073668417
26	0xbd29bc19	-0.04143915
27	0xbdafac51	-0.085777886
28	0x3cdad03b	0.02671062
29	0x3e31af8c	0.17352122
30	0x3cf4ae74	0.029868342
31	0xbda32a5d	-0.079670645
32	0xbddb4d00	-0.10708046
33	0x3e5c96dd	0.21541925
34	0xbe3a81e9	-0.1821362
35	0xbc021b68	-0.0079411045
36	0x3ad19817	0.0015990761
37	0x3ce0568b	0.027385017
38	0x3e03af94	0.12859946
39	0x3d7cbb6a	0.06170217
40	0x3e39ea82	0.18155864
41	0x3de3500d	0.11099253
42	0xbe0635ce	-0.13106462
43	0x3e87ae20	0.26500034
44	0x3d17a321	0.037020806
45	0x3d911c8e	0.070855245
46	0xbe1fafac	-0.15594357
47	0x3e39a0ca	0.18127742
48	0xbe6eacc9	-0.233081
49	0xbcba8ba0	-0.022771657
50	0x3e093f6d	0.13403101
51	0xbe80c490	-0.25149965
52	0xbe20e560	-0.157125
53	0xbe8a8c05	-0.2705995
54	0x3e61b092	0.22040012
55	0x3e2a5b78	0.16636455
56	0x3cc626b8	0.024188384
57	0x3e10c7cc	0.14138716
58	0xbd9f8c7c	-0.07790467
59	0xbe98e928	-0.29865384
60	0x3dc97368	0.09836465
61	0xbbeac85f	-0.0071649994
62	0x3e83f1ba	0.2577036
63	0xbd98b59f	-0.074565165
64	0x3e528e8a	0.20562187
65	0x3d92e7bf	0.07173108
66	0x3e460606	0.19338235
67	0xbe8f38c6	-0.27973002
68	0x3e620afd	0.22074504
69	0xbe96ce50	-0.2945428
70	0x3e6f2a59	0.23355998
71	0xbd42a636	-0.047521792
72	0xbe531c6b	-0.2061631
73	0xbc6b5389	-0.014363178
74	0xbd2da49b	-0.042393308
75	0xbe88f70f	-0.2675099
76	0xbd97f374	-0.07419482
77	0xbd71aa48	-0.059000283
78	0x3e5424c3	0.20717148
79	0xbe072485	-0.13197525
80	0x3e04b778	0.12960613
81	0xbd86532e	-0.06558834
82	0xbd2b1c48	-0.041775018
83	0x3d472d3e	0.04862713
84	0xbe40e5df	-0.18837689
85	0xbe99578a	-0.299496
86	0xbe034e15	-0.12822755
87	0xbe802f93	-0.25036296
88	0xbe12e9ff	-0.14347075
89	0xbda2a3ec	-0.07941422
90	0xbe5a2338	-0.21302497
91	0xbe0b4d84	-0.13603789
92	0xbd94c76f	-0.072646014
93	0xbdfa4a4c	-0.12221202
94	0xbe385300	-0.18000412
95	0xbd2c4ab5	-0.042063434
96	0xbcd2477a	-0.025668848
97	0xbdaf5fa3	-0.08563163
98	0xbd2027b3	-0.03910036
99	0xbe0681ea	-0.13135496
100	0xbda58a71	-0.08083046
101	0xbe1bbdd5	-0.15209134
102	0xbe4e0fd6	-0.20123228
103	0xbc9d2b97	-0.019185824
104	0xbc617f43	-0.013763252
105	0xbd4b621c	-0.04965411
106	0x3c9c2568	0.019060805
107	0x3e01ffbb	0.1269521
108	0xbb8e3cc6	-0.004340741
109	0xbea9fa95	-0.3319899
110	0x3d94c479	0.07264037
111	0xbe7f21f8	-0.24915302
112	0xbc62aafe	-0.013834713
113	0x3d2d9bd1	0.042384926
114	0xbd6c00d3	-0.057617974
115	0xbd8a06e5	-0.06739596
116	0x3e808e8f	0.25108764
117	0x3e8717d0	0.26385355
118	0x3df11da2	0.1177323
119	0x3e80e0c9	0.25171497
120	0xbe5280c6	-0.20556936
121	0x3e26439d	0.1623673
122	0x3e47a781	0.19497491
123	0x3e676e34	0.22600633
124	0xbe39bf90	-0.18139482
125	0x3e5f0f64	0.21783215
126	0xbe0c09d8	-0.1367563
127	0x3dc88fa3	0.097930215
128	0xbd3ba351	-0.045810048
129	0xbdf41da2	-0.119197145
130	0xbe5517d2	-0.20809868
131	0xbe123a9f	-0.14280175
132	0x3df4959b	0.119425975
133	0x3e506a7c	0.2035312
134	0xbe41035e	-0.1884894
135	0xbd822f0b	-0.06356629
136	0x3c05463b	0.00813442
137	0xbdf97421	-0.12180353
138	0x3e23015f	0.15918492
139	0x3e981df0	0.2971034
140	0x3d3541cb	0.0442522
141	0xbdab69c7	-0.08369785
142	0x3d6fd39d	0.05855142
143	0x3e40a6d8	0.18813646
144	0x3e4f7b1d	0.20261808
145	0xbd12734f	-0.035754498
146	0xbe40c0e4	-0.18823582
147	0x3df3d48e	0.11905776
148	0x3cb5a588	0.022173658
149	0x3c4dbd4e	0.012557341
150	0xbda0f687	-0.07859521
151	0xbdce2b9e	-0.10066913
152	0x3e5495ad	0.20760222
153	0x3d672980	0.05643606
154	0x3e3d5dc5	0.18492801
155	0x3e97188d	0.29510918
156	0x3d042783	0.032264244
157	0x3e2945a8	0.16530478
158	0xbd0138ca	-0.0315483
159	0x3e8ef0ea	0.27918178
160	0xbe5dd24f	-0.21662258
161	0x3e48dbc3	0.19615082
162	0xbcb1e2fd	-0.021714682
163	0x3e1167ea	0.14199796
164	0x3c1b593d	0.009481725
165	0x3a7f0b1d	0.0009729134
166	0xbc096184	-0.008385066
167	0x3e294159	0.16528834
168	0xbe258ab0	-0.16166186
169	0xbd87fade	-0.06639646
170	0xbcf211ff	-0.029549597
171	0xbd58e0c8	-0.052948743
172	0x3de35b11	0.11101354
173	0x3e83d77f	0.25750348
174	0xbbaaafe2	-0.005208955
175	0x3e952142	0.29126936
176	0xbe03dcd1	-0.12877204
177	0xbe6be01f	-0.23034714
178	0xbe1ec35d	-0.15504213
179	0xbe21cf6a	-0.15801778
180	0xbe5066fb	-0.20351784
181	0xbe9a2317	-0.30104896
182	0xbe890231	-0.26759484
183	0x3d96d359	0.0736453
184	0x3df6211a	0.12018032
185	0x3e2a2ad7	0.16617905
186	0x3e293ed6	0.16527876
187	0xbc0bd0a1	-0.008533628
188	0x3c5c01b6	0.013428142
189	0xbe5bbd38	-0.214589
190	0x3d8377ff	0.06419372
191	0xbe884c86	-0.26620883
192	0x3e0f1bdc	0.13975471
193	0x3df60ed9	0.12014551
194	0x3de7891c	0.113054484
195	0x3da8ef76	0.082487985
196	0xbdbaa317	-0.09113138
197	0x3e8f8e47	0.28038236
198	0x3e258daf	0.16167329
199	0x3e1fe4c4	0.15614611
200	0x3d6fa23b	0.058504324
201	0x3e61aec6	0.22039327
202	0x3e4d8245	0.20069225
203	0x3e16e1cf	0.14734577
204	0x3e5ea2c9	0.21741785
205	0x3c8f8751	0.017520579
206	0x3e4e742b	0.20161502
207	0x3db0ad87	0.08626848
208	0x3e1f81d0	0.15576863
209	0x3dfd43af	0.12366425
210	0x3cd97550	0.026545197
211	0xbddd7798	-0.10813826
212	0xbc9fdcf7	-0.019514544
213	0xbd35c2bf	-0.044375177
214	0x3cb20889	0.021732586
215	0xbdec82fd	-0.115484215
216	0x3e50998e	0.20371076
217	0x3d04d47b	0.0324292
218	0xbe27ff73	-0.1640604
219	0xbdb82e96	-0.089932606
220	0xbc4a769d	-0.012357381
221	0xbe90bc8f	-0.2826886
222	0x3d27e31b	0.04098807
223	0xbe32a3fd	-0.17445369
224	0xbe01f030	-0.1268928
225	0x3d36fb5b	0.044673305
226	0xbcee9e4e	-0.02912822
227	0x3e723eaf	0.23656724
228	0x3dd2a1c3	0.1028476
229	0x3ebbb63a	0.36662465
230	0x3df487ff	0.11940002
231	0x3d919f03	0.07110407
232	0x3de2c190	0.11072075
233	0x3e29c42a	0.16578737
234	0xbe257611	-0.1615832
235	0xbdb175e1	-0.08665062
236	0xbd5df17e	-0.054185383
237	0x3e09aa44	0.13443857
238	0x3debcaf5	0.1151332
239	0x3e478b6a	0.19486776
240	0x3e50a0ed	0.20373888
241	0xbdbea3d2	-0.0930859
242	0xbde74d0e	-0.11293994
243	0xbe5cd46d	-0.21565409
244	0xbe36a01e	-0.17834517
245	0xbe94b03e	-0.29040712
246	0x3d3330b9	0.043747637
247	0x3dc5d098	0.09658927
248	0x3e64c082	0.22339061
249	0xbe5ea785	-0.21743591
250	0xbd48274b	-0.048865598
251	0xbe04a913	-0.12955122
252	0x3b9df633	0.004820609
253	0xbd748872	-0.059700437
254	0xbc726297	-0.014794013
255	0xbda9606c	-0.08270344

model.0.bias f4 [64]
0	0x3a4701d8	0.00075915223
1	0x3d16b22f	0.036791023
2	0x3e75290d	0.23941441
3	0x3dbf3f43	0.09338238
4	0xbdde9a32	-0.10869254
5	0xbbf5e353	-0.007503906
6	0x3e11687a	0.14200011
7	0x3e0078dd	0.12546106
8	0x3d387abf	0.045038935
9	0x3d3c8242	0.04602266
10	0xbd2aa2c7	-0.041659143
11	0xbd2b734b	-0.041858
12	0xbd890db4	-0.06692067
13	0x3dd2a70b	0.10285767
14	0x3de333a5	0.11093835
15	0x3e665cb0	0.22496295
16	0xbcbb2db9	-0.02284895
17	0x3d5ca619	0.05386934
18	0x3e6e9dec	0.2330243
19	0x3e1ce880	0.15323067
20	0x3db7e521	0.0897925
21	0x3df3db4b	0.11907061
22	0x3d746c30	0.05967349
23	0xbe348451	-0.176286
24	0x3d87c3a6	0.06629114
25	0x3cf20996	0.029545587
26	0x3e8ff9e9	0.28120354
27	0x3e70f57a	0.23531142
28	0x3dbbb30a	0.09165008
29	0x3e9d997e	0.30781168
30	0xbe2476fd	-0.16061015
31	0x3e81ad6c	0.25327623
32	0x3e75e1e8	0.24011958
33	0x3d817151	0.063204415
34	0xbe1017ad	-0.14071532
35	0xbd0ee799	-0.034888837
36	0xbc34034b	-0.010987113
37	0x3d9db353	0.07700219
38	0xbe6cbfc0	-0.23120022
39	0x3e01ca0c	0.12674731
40	0xbde671dd	-0.112521864
41	0x3c29fb9a	0.010374928
42	0xbdb99a97	-0.09062689
43	0x3d4cd81f	0.050010797
44	0xbe6b4b2d	-0.22977896
45	0xbde70ae7	-0.11281376
46	0x3d91781e	0.07102989
47	0x3e5c362f	0.21505044
48	0x3e90dc66	0.2829315
49	0xbe37b4d6	-0.17940077
50	0x3de0a5ef	0.10969149
51	0xbdec510c	-0.11538896
52	0xbe467674	-0.19381124
53	0x3c9dcaea	0.019261796
54	0xbe0a89e2	-0.1352916
55	0xbe3eb9ec	-0.18625611
56	0xbe6d382a	-0.23165956
57	0xbe2009f9	-0.15628804
58	0x3e80a523	0.2512599
59	0x3e5a95b7	0.21346174
60	0xbc635c66	-0.01387701
61	0xbd5b22fa	-0.053500153
62	0xbe1beb96	-0.15226588
63	0xbdd8ad4c	-0.10579929

model.2.weight f4 [64, 64]
0	0xbcbb0c84	-0.022833116
1	0x3dc420b3	0.095765494
2	0x3dddc546	0.108286425
3	0xbd0ca38b	-0.034335654
4	0x3db7ee10	0.08980954
5	0xbdcf4357	-0.10120266
6	0xbdf8d768	-0.121504605
7	0x3df9e556	0.122019455
8	0xbbe75280	-0.0070593953
9	0x3de1cd59	0.11025495
10	0x3e2b7bdf	0.16746472
11	0xbde610d5	-0.11233679
12	0xbd406425	-0.046970505
13	0x3ce53f43	0.027984267
14	0xbd39a964	-0.04532756
15	0x3ddc693c	0.10762259
16	0x3b384021	0.0028114396
17	0x3e07a4b5	0.13246424
18	0xbdd1cb24	-0.10243824
19	0xbd0aad2b	-0.033856552
20	0xbd473ef4	-0.04864402
21	0x3d5931c5	0.05302598
22	0x3dc6b9a4	0.09703377
23	0x3e1c1833	0.15243606
24	0x3d82cdf6	0.0638694
25	0xbd3ac3bd	-0.045596827
26	0x3df3454c	0.11878452
27	0x3c01311b	0.007885243
28	0xbd16472f	-0.03668898
29	0xbdb5ea2e	-0.08882557
30	0xbdf4b18a	-0.119479254
31	0x3e1a10b9	0.15045442
32	0xbc1d43e2	-0.009598704
33	0x3d73bb46	0.05950477
34	0x3d7bcf8b	0.061477225
35	0x3af84d19	0.0018943875
36	0x3dd4133d	0.10355232
37	0xbdd9e256	-0.10638873
38	0x3ae48963	0.0017435964
39	0x3ca023e5	0.019548366
40	0x3d608e4f	0.054823216
41	0xbe1e3a2b	-0.15451877
42	0x3cd604ba	0.0261253
43	0xbe0c5461	-0.13704063
44	0x3c4c8309	0.012482413
45	0x3ddad960	0.10685992
46	0xbb9595e3	-0.004564987
47	0x3da72e07	0.08163076
48	0x3d81356e	0.06309019
49	0x3dc553bf	0.09635114
50	0x3dcb276d	0.09919629
51	0x3d590b28	0.052989155
52	0xbd865f74	-0.06561175
53	0xbd80e34b	-0.06293353
54	0x3da4aedf	0.080411665
55	0x3dfb3e52	0.12267746
56	0x3db01ac6	0.08598857
57	0xbdac7a25	-0.08421735
58	0x3d8ecc8b	0.06972607
59	0x3d68d7ea	0.056846537
60	0x3d868547	0.065683894
61	0x3d68b5aa	0.056813873
62	0xbc9bf489	-0.019037502
63	0xbd58a23b	-0.05288909
64	0x3dacbda0	0.084346056
65	0xbd95abd2	-0.07308163
66	0x3d17acbe	0.037029974
67	0xbe00a74d	-0.1256382
68	0xbd3eee11	-0.046613757
69	0xbe0193fb	-0.12654106
70	0xbd9c8d60	-0.07644153
71	0x3bef2790	0.0072984174
72	0xbe0e4597	-0.13893734
73	0xbe1afeb1	-0.1513622
74	0x3d5d566a	0.05403749
75	0x3d6c6f7f	0.05772352
76	0xbc7f81d1	-0.0155949155
77	0xbdbdd868	-0.09269792
78	0xbd8ba740	-0.0681901
79	0xbd741e50	-0.05959922
80	0x3d044742	0.03229452
81	0xbdaa332e	-0.08310543
82	0xbd74d29c	-0.059771165
83	0xbdf522ee	-0.11969553
84	0xbd75599e	-0.05989992
85	0x3d4e8389	0.05041841
86	0x3d89cd18	0.06728572
87	0xbc83f1fb	-0.016106596
88	0xbda77760	-0.08177066
89	0x3dd556b6	0.104169294
90	0xbc8989e2	-0.01678938
91	0xbd9e13b7	-0.07718604
92	0xbd6bdcc5	-0.05758359
93	0xbd66d005	-0.056350727
94	0x3d5d7826	0.05406966
95	0x3c0b3402	0.008496286
96	0x3d4670af	0.048447307
97	0xbc3fee17	-0.01171448
98	0x3da6e3a7	0.0814889
99	0xbd4c7419	-0.049915407
100	0xbd7e53c4	-0.062091604
101	0xbd648b7c	-0.055797085
102	0xbdfb79a1	-0.12279058
103	0xbdb7f2b3	-0.08981838
104	0xbe03b389	-0.12861456
105	0xbc2fcb1f	-0.01072958
106	0xbc817572	-0.015803073
107	0xbd1696fe	-0.03676509
108	0xbdaef23a	-0.08542295
109	0x3dd975bb	0.106181584
110	0xbd59d0f6	-0.053177796
111	0x3c79367c	0.015210744
112	0x3d4c1ee3	0.049834143
113	0xbdadec19	-0.08492298
114	0xbd05646f	-0.032566484
115	0x3d6c03ff	0.057621
116	0x3dfa9966	0.1223629
117	0xbcc5a391	-0.024125846
118	0x3d9262f7	0.07147782
119	0xbdc8ecfe	-0.09810828
120	0xbda28527	-0.07935553
121	0x3dbf14b2	0.09330119
122	0xbca30a68	-0.019902423
123	0x3dba28bf	0.09089803
124	0xbc374eb2	-0.011188196
125	0xbd57a580	-0.052648067
126	0x3df5f9fe	0.12010573
127	0x3dca34b1	0.09873331
128	0xbbab2897	-0.0052233445
129	0xbdb77f2c	-0.08959803
130	0xbcc0d447	-0.023538722
131	0xbd9c2fb7	-0.076262884
132	0x3da030c5	0.07821802
133	0x3b5098f4	0.0031829448
134	0x3c1f1364	0.009709213
135	0x3d6fa5db	0.05850778
136	0x3d1ee701	0.03879452
137	0xbda336fe	-0.07969473
138	0x3dc5992c	0.09648356
139	0x3d733510	0.059376776
140	0xbda6dafe	-0.08147238
141	0x3d969ac0	0.07353735
142	0xbb53123e	-0.0032206918
143	0xbd31da54	-0.043421105
144	0xbdbb686f	-0.091507785
145	0xbd2198f9	-0.039452527
146	0xbe1647f0	-0.1467588
147	0x3d51890a	0.05115608
148	0x3d8d3b5c	0.068960875
149	0xbd3ea9a3	-0.046548497
150	0x3dc98870	0.098404765
151	0xbd41b4a7	-0.047291424
152	0x3c3a3281	0.01136458
153	0xbdd27585	-0.10276321
154	0xbc9d1dda	-0.019179273
155	0x3c6ff6db	0.014646257
156	0x3d18779e	0.03722345
157	0xbc49f48e	-0.012326373
158	0xbd9997d8	-0.07499665
159	0x3d59941f	0.053119775
160	0x3d7ccb92	0.061717577
161	0xbb678582	-0.003532738
162	0xbd6b74dc	-0.057484493
163	0x3baa82c4	0.0052035768
164	0xbcbb616c	-0.022873603
165	0x3dc36c74	0.0954217
166	0x3d02bafb	0.0319166
167	0xbbf9626e	-0.0076106107
168	0x3c251e60	0.010078043
169	0x3d402fda	0.046920635
170	0x3b191db2	0.0023363647
171	0x3db51abe	0.08842991
172	0x3d855f98	0.06512374
173	0xbdca9c37	-0.09893077
174	0xbc6b6f8d	-0.0143698575
175	0xbdfaf0df	-0.12252974
176	0xbdecd916	-0.11564843
177	0x3cc6f4c8	0.024286643
178	0xbab9072a	-0.0014116515
179	0xbcb4a1ca	-0.022049803
180	0x3deec617	0.116588764
181	0xbdb98c1f	-0.09059929
182	0xbd5e7d96	-0.054318987
183	0xbca81964	-0.02051992
184	0x3ba71141	0.0050984924
185	0xbc9790bf	-0.018501638
186	0x3dc20857	0.09474247
187	0xbd8ddf96	-0.06927411
188	0xbd983205	-0.074314155
189	0xbb1be2b4	-0.0023786249
190	0x3daea0c2	0.08526756
191	0x3d115b05	0.035487194
192	0x3dda4850	0.10658324
193	0x3d69156c	0.056905195
194	0x3e40e7f4	0.18838483
195	0x3dd52e9b	0.1040928
196	0x3dce82d4	0.10083547
197	0xbc3467e8	-0.011011101
198	0xbdafe089	-0.085877486
199	0x3d3ea08e	0.046539836
200	0x3debac5d	0.11507485
201	0x3e25fcb0	0.16209674
202	0x3ca0ac03	0.019613272
203	0x3db5034b	0.08838519
204	0x3d5faa22	0.05460561
205	0x3b2c192f	0.0026260128
206	0x3da1ab95	0.07894055
207	0xbaec5975	-0.0018032031
208	0x3e439635	0.19100268
209	0x3db44309	0.088018484
210	0x3dd45951	0.10368598
211	0xbd4100b5	-0.047119815
212	0xbdb9e417	-0.09076708
213	0x3d173b27	0.036921646
214	0x3dfa416a	0.12219508
215	0x3de8c30a	0.11365326
216	0x3dc19691	0.094525464
217	0xbe0c068d	-0.13674374
218	0x3deadeca	0.11468275
219	0xbd0cb946	-0.034356378
220	0xbdf007c8	-0.11720234
221	0x3d92b110	0.07162678
222	0xbd9f098b	-0.07765492
223	0x3e46c5c9	0.19411387
224	0x3b61239a	0.0034353496
225	0x3ce13655	0.027491728
226	0x3dfba3e5	0.1228712
227	0xbdd0128c	-0.101597875
228	0x3d91540e	0.0709611
229	0xbc9729ea	-0.018452603
230	0x3dc3355b	0.09531661
231	0x3e0ea055	0.1392835
232	0xbcde688c	-0.027149461
233	0xbd816ae6	-0.063192174
234	0x3dc5ce22	0.09658457
235	0xbb274670	-0.0025524162
236	0xbc7ccba2	-0.015429409
237	0x3deff804	0.11717227
238	0xbd0bfabd	-0.03417467
239	0x3db22829	0.08699066
240	0x3e33826b	0.1753022
241	0x3d301ad6	0.042994343
242	0xbd434bf6	-0.047679864
243	0x3d7fc459	0.06244311
244	0xbda4c3dd	-0.080451705
245	0xbd55d059	-0.05220065
246	0x3d968c91	0.0735103
247	0xb932c4cd	-0.00017048717
248	0xbd2b9537	-0.04189035
249	0x3cc9d57d	0.024637932
250	0x3d1e84d9	0.038700912
251	0xb7fd66d8	-3.020784e-05
252	0xbdba31de	-0.09091543
253	0xbe0a89f6	-0.1352919
254	0x3c818bbe	0.015813705
255	0xbd8b6dd3	-0.06808057

model.2.bias f4 [64]
0	0x3d9bbaf2	0.07604016
1	0x3be133d1	0.006872632
2	0xbd802da6	-0.06258707
3	0x3e33c2a9	0.17554726
4	0x3ccff4e0	0.02538532
5	0xbcf3f9c3	-0.029782182
6	0xbdf94912	-0.1217214
7	0x3e1d68f1	0.15372063
8	0xbde87487	-0.11350351
9	0x3de3f10b	0.1112996
10	0xbb924e9b	-0.004464937
11	0x3cc8e6a0	0.024524033
12	0x3d2b12ee	0.0417661
13	0x3e132c16	0.14372286
14	0xbda885ce	-0.08228646
15	0xbdcc995f	-0.09990191
16	0x3db1f60e	0.08689509
17	0xbcdc2c98	-0.026876733
18	0x3c5531da	0.013012374
19	0x3dc6778c	0.096907705
20	0x3b25a3c2	0.002527461
21	0x3e101495	0.14070351
22	0xbda662c6	-0.08124308
23	0x3e3d7316	0.18500933
24	0x3dfba2a1	0.122868784
25	0x3d702914	0.058632925
26	0x3bf200ea	0.007385363
27	0x3da5b59e	0.08091281
28	0x3dc4b2c5	0.0960441
29	0x3bdd3cdd	0.0067516402
30	0x3df59f53	0.11993279
31	0x3d02d396	0.031940065
32	0x3d2cbea3	0.042173993
33	0xbd39cd77	-0.045361962
34	0x3c8152b8	0.015786514
35	0x3d98f0b1	0.07467783
36	0x3ca030b4	0.019554473
37	0x3ddc8377	0.107672624
38	0x3dbe58a9	0.09294254
39	0x3da917bf	0.08256482
40	0xbdd29eee	-0.1028422
41	0x3dca6ca5	0.098840035
42	0x3e08097b	0.13284867
43	0x3d22fcf9	0.039792035
44	0x3d18c4dd	0.03729712
45	0xbd9bb966	-0.07603721
46	0xbc976ebc	-0.01848542
47	0x3d510d18	0.051037878
48	0xbde1d45a	-0.11026831
49	0x3d431a30	0.047632396
50	0xbde5c417	-0.11219042
51	0xbd78a7ca	-0.06070689
52	0x3ce581b9	0.028015958
53	0x3dbd6372	0.09247483
54	0x3e2d584f	0.16928218
55	0xbd67b649	-0.056570325
56	0xbda43cf1	-0.08019436
57	0x3ce5b81e	0.028041895
58	0x3d44c368	0.048037916
59	0xbdd1cb16	-0.10243814
60	0x3d906eeb	0.07052406
61	0xbd35a73c	-0.04434894
62	0x3d98f871	0.074692614
63	0x3d8e1b46	0.06938796

mu_layer.weight f4 [1, 64]
0	0x3e0cdcdf	0.1375613
1	0xbd9ff861	-0.078110464
2	0x3daac778	0.08338827
3	0x3d26db89	0.04073671
4	0x3e03a158	0.12854517
5	0x3e1833c1	0.14863493
6	0xbcd0626c	-0.025437556
7	0xbd633c0a	-0.05547718
8	0xbd4c951a	-0.04994688
9	0x3e3faf7b	0.18719284
10	0xbd8cb95a	-0.068712905
11	0x3e422277	0.1895846
12	0x3df68407	0.12036901
13	0x3e2aefc8	0.16693032
14	0x3db55364	0.08853796
15	0x3d981984	0.07426742
16	0xbe210719	-0.15725364
17	0xbdae407f	-0.085083954
18	0xbe173279	-0.14765348
19	0x3db9f6c0	0.09080267
20	0x3db17d86	0.0866652
21	0x3d5df3f4	0.05418773
22	0x3cef4657	0.029208345
23	0x3b5fd0f9	0.0034151657
24	0x3db36ea1	0.08761335
25	0xbdef627e	-0.11688708
26	0x3e16e567	0.14735948
27	0xbe009434	-0.12556535
28	0xbe3e9b94	-0.18614036
29	0x3e067c02	0.13133243
30	0x3e1be338	0.15223396
31	0xbda99883	-0.082810424
32	0x3de1886c	0.110123485
33	0xbd470fb9	-0.04859898
34	0xbe1f92e3	-0.15583377
35	0xbd1e8d46	-0.038708948
36	0x3e0afc5c	0.1357283
37	0xbe0be317	-0.13660847
38	0x3dfb3eeb	0.1226786
39	0xbdf91f8a	-0.12164219
40	0xbcecc36b	-0.028901776
41	0xbdd820c9	-0.10553128
42	0xbde5bb23	-0.11217334
43	0x3e166bea	0.14689603
44	0xbe04c6fd	-0.12966533
45	0xbd3f62be	-0.046725027
46	0x3c982726	0.018573355
47	0x3e32594f	0.17416881
48	0x3d378e39	0.04481337
49	0x3debc2c0	0.11511755
50	0xbd24ca72	-0.04023213
51	0x3e1d771a	0.15377465
52	0x3c3b234e	0.0114219915
53	0x3e2e1703	0.17000966
54	0x3d20efa8	0.039291054
55	0x3e17e10a	0.1483194
56	0x3da85285	0.08218864
57	0x3daaac35	0.08333627
58	0xbe3137c9	-0.17306437
59	0x3cd05a50	0.02543369
60	0xbe342038	-0.17590415
61	0xbb0abb0b	-0.0021168615
62	0xbbb6cc5d	-0.005578561
63	0x3e23a95d	0.15982576

std_layer.weight f4 [1, 64]
0	0xbe408123	-0.18799262
1	0x3d3c55f6	0.045980416
2	0x3dab8600	0.08375168
3	0xbde5861e	-0.112072214
4	0xbc51509c	-0.012775566
5	0x3d26fb30	0.040766895
6	0x3c248cd9	0.010043346
7	0xbdde12a5	-0.108434
8	0x3d44f761	0.04808748
9	0x3d170714	0.036871985
10	0xbdb37b7a	-0.08763786
11	0x3c808732	0.015689466
12	0xbd72bf8e	-0.059264712
13	0xbdd8e6b3	-0.105908774
14	0xbc32bd10	-0.010909334
15	0xbe07a9df	-0.13248394
16	0xbbf7935f	-0.00755541
17	0xbdad9bd2	-0.08476986
18	0xbe3875d0	-0.18013692
19	0xbdc56e0e	-0.09640132
20	0xbdfa6647	-0.12226539
21	0xbe26d180	-0.16290855
22	0xbc8ce56b	-0.017199239
23	0xbdbefa7d	-0.093251206
24	0xbd2b7fd9	-0.041869972
25	0xbd42e6ed	-0.04758351
26	0xbdb3833d	-0.08765266
27	0xbc6747de	-0.014116256
28	0xbe1698be	-0.14706704
29	0x3d329649	0.043600354
30	0xbc8bd98b	-0.017071506
31	0x3d0f7453	0.035023045
32	0xbdfa3691	-0.12217439
33	0x3d864ca1	0.065575846
34	0xbd2a2125	-0.041535515
35	0xbe4adcdd	-0.19810815
36	0x3d6580db	0.05603109
37	0xbd8fe3fd	-0.07025907
38	0xbd831f37	-0.06402438
39	0x3d056415	0.03256615
40	0x3d8593ab	0.06522306
41	0x3d3388e2	0.043831713
42	0xbe445ce1	-0.19176055
43	0x3d65df46	0.056121133
44	0xbce4b020	-0.027916014
45	0xbb3cdf73	-0.002881971
46	0xbe245c26	-0.16050777
47	0xbe209b80	-0.15684319
48	0x3de49cfc	0.11162755
49	0x3d0c9827	0.03432479
50	0x3db6832b	0.08911737
51	0xbda699df	-0.08134817
52	0xbe206a37	-0.15665518
53	0xbd2f1a9f	-0.042749997
54	0xbe0cb185	-0.13739593
55	0xbe1e21db	-0.15442602
56	0x3d1d5288	0.038408786
57	0x3d2aa35f	0.04165971
58	0xbe32b8a1	-0.17453243
59	0xbde248ae	-0.11049019
60	0xbd27b573	-0.040944528
61	0xbdd8c567	-0.105845265
62	0xbdf4dd63	-0.11956289
63	0xbdcb7203	-0.099338554
